SignLangToText/model/keypoint_classifier/keypoint_classifier.tflite (tflite, 6676 bytes, 6 tensors)

sequential/dense/BiasAdd/ReadVariableOp f4 [20]
00000000: 043a 1fbc c4d9 8aba 56c2 113c bd3a b1bb
00000010: ccec 20bc 825c 8c3b bdb5 bd3a be53 ccba
00000020: 3a6e f6bb dda5 05bc f0f9 a839 bcc9 c93b
00000030: c4bf 313b 4289 f43b f706 273c 531b 2dbc
00000040: 7fc1 82bc 1e67 0bba 2861 04bc 39e2 3dbc
-0.009718422 -0.0010593464 0.008896431 -0.0054086135 -0.009822082 0.0042834887 0.0014473718 -0.0015588922
-0.0075204642 -0.008157221 0.00032229675 0.006158082 0.0027122358 0.0074626515 0.010194532 -0.010565597
-0.015961407 -0.0005317795 -0.0080798045 -0.01158958

sequential/dense_2/BiasAdd/ReadVariableOp f4 [7]
00000000: 97bb a6bc db22 a83c 850e a73c 2af8 a43c
00000010: 176c abbc 9ee6 a1bc f066 7bbc
-0.020353122 0.020524433 0.020392666 0.020137865 -0.020925565 -0.019763287 -0.015344366

sequential/dense_1/BiasAdd/ReadVariableOp f4 [10]
00000000: 99d3 493c b0c9 8abb 11f9 3cbc 1f17 45bc
00000010: d545 0f3b 8d31 0d3b 8f9d 5d3a 108f e33b
00000020: ae6b 0bbc e12e 58bc
0.012318515 -0.004235469 -0.011533991 -0.012029438 0.0021861691 0.0021544427 0.0008453959 0.0069445446
-0.00850956 -0.013194771

sequential/dense/MatMul f4 [20, 42]
00000000: c048 7b3d 202b 733e 3606 efbc a5ae 863e
00000010: 0c2a 473e 6091 073d 0d9d 8fbe 7505 70bd
00000020: 88e6 42be c55f 0d3e 998b 20be 480a 993e
00000030: 45b2 fa3d 4248 513d 4348 82be 03ca 84be
00000040: 219f 3ebe ab04 78bd fa62 60be 948e 2c3e
00000050: 1fe9 8abe 30fa 0f3c 2a19 833e 1611 15be
00000060: b987 903e c834 3dbe e190 3b3e 4fde 133e
00000070: 5a15 373e fbbf 753e 0507 7dbe cc33 9d3e
00000080: ff5b f93d 657e 81bd 6fa9 283e d948 8f3e
00000090: f002 debd b24d 84be 30c3 6cbd df0b 7e3d
000000a0: 786a 253d 9f3b 7ebe 70ee 813d c8a9 dfbd
000000b0: 2c08 fe3d 14fe 1e3e f3a7 7fbe faae 9ebe
000000c0: 3f7c 9abd 818d 8a3e 3a64 373e ded0 43be
000000d0: 9bce 943e 871a 013e b8bb 84bd 70bb 393e
000000e0: 57e4 b6bd 2708 95be 3b84 a7bb 2613 5dbe
000000f0: 60bf 9cbe 316c 77be a132 ab3d b43f 883e
00000100: c748 143c 5847 8b3e e35d 86be 5f76 9fbe
00000110: 5d50 7bbe c0df 0cbe 8fb8 54be f926 28be
00000120: 9997 953e ffbd d43d 1e13 913c 1240 513e
00000130: a6e3 56be c0dd 98be 8924 79be 70ba 4abe
00000140: a888 0fbd 6277 483e 083a 463e 269e 5f3e
00000150: 74a2 923e 0dcf 01be 1c27 9a3e 075e 8dbe
00000160: 8a60 cebd 38d6 e1bd 55a2 973e 05a8 963b
00000170: b965 823e e015 23bd a73a 20be 018e ce3d
00000180: 0fca 5d3c f799 333e 6f69 d7bd 5d2a 1b3e
00000190: d82d 923e e665 61bd df30 f23d 7c18 203d
000001a0: 0d40 a63d 8771 23be dc89 37bd 557f 73bc
000001b0: 730e 0ebe ab8b febc 8dda a3be c574 16bd
000001c0: 9ef0 9ebe 5c40 ae3c f067 0dbd 7b6d 333e
000001d0: 8115 cfbc 05b5 93be 24e5 0f3e 2ab5 bb3d
000001e0: fbe2 ecbd f651 323d b93a 90be 3af9 f1bc
000001f0: 9342 6c3c 9d78 f43d 604f 6abe 0614 53be
00000200: 75e2 21be ef5f a23c f0a4 61be 8e77 11bd
00000210: 60bc 793e 37fb 933e 46f5 873e 526c 04be
00000220: e936 02be 2b42 8ebd 3b52 393e f3c9 453e
00000230: 184e a1bc 4133 92bb 47be 92be 6ec6 2abe
00000240: f7f1 4c3d d6eb 0b3b 84bd 19be 8e8e 393d
00000250: 84d4 223e eb76 0dbd e7e3 4dbe 873e d7bd
00000260: fe9b 2ebe 172f 333e beff 953e 3021 353e
00000270: c7ba 58be aa0b e93d e80f d03b 0265 963e
00000280: d75e 093e 1997 2d3d c640 5e3e a434 803e
00000290: 89c3 edbd d621 90be 186d 513e 6dfb 1d3e
000002a0: 60ea 18bc 2818 8c3e cfb9 883e 4782 58bc
000002b0: d659 86be 4113 2dbc 97ff 4fbd 6784 84be
000002c0: 5b43 843e f5dd 17be cad3 e93d 4463 7b3d
000002d0: bbb6 4a3e a3ab 8e3e bff0 69be 5225 84be
000002e0: 9603 69be 2420 593d 69b1 7ebd 1834 5e3e
000002f0: a21e 853e 3bcb c4bd 9556 97be fbb7 8fbe
00000300: eb24 94be b896 8fbc 4025 983c 279d 6cbd
00000310: 6e47 d8bc 63f5 8ebe 999a 013d 6965 3ebd
00000320: 70fb 9dbc d110 153d 78b2 053d 7e28 46bc
00000330: 3855 62be 73fb 8c3b d689 923e bd51 27be
00000340: 97ca 523d 3f3a 94be 446f 603e 76db 8dbd
00000350: d5cd f7bc bc45 883e 1c51 053e 789b c53c
00000360: 93f2 8dbe 47a8 2b3e bff9 993e 5952 36be
00000370: ffa5 913e ecf3 cbbd be55 ce3d 2db0 5e3d
00000380: cf22 d4bd b91f 2ebd 2e63 3c3e f04b 373d
00000390: c5c2 893e dd9e 343e c574 9abe 39a0 733e
000003a0: b1d0 483e 9017 733d 6982 1ebe 2dee 5fbe
000003b0: 15e6 97be 3e68 cf3c 9e2f a1bd bbe1 ea3d
000003c0: 9d50 42be 9c22 4f3e fd32 203e 0ee3 25be
000003d0: 9cb4 74bd 39fc 343e e51d a63d 9044 913e
000003e0: b548 ec3c 3406 45be d3bb 18be 8d0a fcbd
000003f0: 004c d4bd 00c0 21b8 902c 23bc 611c 353e
0.061348677 0.2374692 -0.029177766 0.26305118 0.19449633 0.033097625 -0.28049508 -0.058598954
-0.19033253 0.13806064 -0.15678252 0.29890656 0.122410335 0.0510943 -0.25445756 -0.25935373
-0.1861539 -0.060551327 -0.21912757 0.16851264 -0.27130982 0.008787677 0.25605136 -0.14557299
0.28228548 -0.18477166 0.18316986 0.14440273 0.17879239 0.23999016 -0.24709709 0.3070358
0.1217575 -0.06322936 0.16470884 0.27985266 -0.10840404 -0.25840527 -0.057803333 0.06202304
0.04038474 -0.24827431 0.063443065 -0.10921055 0.124039024 0.1552661 -0.24966411 -0.30992872
-0.07543229 0.27061084 0.17909327 -0.19122645 0.29063877 0.12607776 -0.06481117 0.18137908
-0.08930271 -0.29107782 -0.0051121986 -0.21589336 -0.30614758 -0.24162365 0.08359266 0.26611102
0.009050555 0.27202868 -0.26243505 -0.31144997 -0.24542375 -0.13757229 -0.20773529 -0.16421117
0.29217222 0.103878014 0.017709311 0.20434597 -0.20985278 -0.29856682 -0.24330343 -0.19797683
-0.035042435 0.19576791 0.19358075 0.21837673 0.28639567 -0.1267664 0.30107963 -0.276108
-0.10077007 -0.11027187 0.29616037 0.004597666 0.25468233 -0.039815784 -0.15647374 0.10085679
0.013536944 0.17539202 -0.10518157 0.15152879 0.285506 -0.05502882 0.11825728 0.03908585
0.081176855 -0.15961276 -0.044809207 -0.014861901 -0.138727 -0.031072458 -0.3200268 -0.036732454
-0.3104295 0.021270923 -0.03452295 0.17522232 -0.025278809 -0.28849044 0.14052254 0.09165414
-0.115667306 0.043535195 -0.28169802 -0.029537786 0.014420169 0.11937068 -0.22881842 -0.20613107
-0.15809043 0.019821135 -0.22035575 -0.035514407 0.24388266 0.289026 0.26554316 -0.12931946
-0.12716259 -0.06946214 0.18097775 0.19315319 -0.019690558 -0.0044616763 -0.28660795 -0.16677257
0.050035443 0.0021350286 -0.150137 0.045301966 0.15901381 -0.034537237 -0.20106469 -0.10509973
-0.17051694 0.17498432 0.29296678 0.17688441 -0.21165 0.11379178 0.0063495524 0.29373938
0.13415085 0.042380426 0.21704397 0.25040162 -0.11609561 -0.28150815 0.20451772 0.15427943
-0.009333223 0.2736218 0.2670426 -0.013214654 -0.26240414 -0.0105636725 -0.05078086 -0.25882265
0.25832638 -0.14830764 0.11417349 0.061373964 0.19796269 0.27865323 -0.22845744 -0.25809723
-0.22755274 0.053009167 -0.06218091 0.2169956 0.25999933 -0.09609076 -0.29558244 -0.28070053
-0.28934416 -0.017527923 0.01857245 -0.05776706 -0.026401248 -0.2792159 0.031641576 -0.04648343
-0.019284934 0.03639299 0.032640904 -0.012094615 -0.22102821 0.004302436 0.28620785 -0.16339774
0.051462736 -0.28950688 0.21917444 -0.069266245 -0.030249516 0.26615703 0.13019222 0.024121985
-0.27724132 0.16763411 0.30073354 -0.1780485 0.28446957 -0.09958634 0.10074948 0.054367233
-0.10358202 -0.04251072 0.18397209 0.044750154 0.2690641 0.17638727 -0.30167213 0.23791589
0.1961086 0.059348643 -0.15479435 -0.218682 -0.29667726 0.025318261 -0.078704104 0.11468836
-0.18976064 0.20228046 0.1564445 -0.16199896 -0.059742555 0.1767434 0.08111171 0.28372622
0.028843263 -0.19240648 -0.14915399 -0.123067 -0.10366058 -3.8564205e-05 -0.009959355 0.17686607

sequential/dense_1/MatMul f4 [10, 20]
00000000: c225 dbbe 7c21 cbbe 113c 67be ece6 ab3d
00000010: 2ac8 3ebe 8686 0abd 20ba 00be 7036 39be
00000020: 96f2 9b3e 3994 e63e b969 dfbe c0c2 ff3d
00000030: ba4e 40be 8588 44be 399c 243e d7f6 283e
00000040: febe 83bd 1ec7 a73e d8be 983d a3a6 d7be
00000050: a251 00be a450 28be 47d8 aabe 720b dbbe
00000060: ef9b 38be e422 8bbb bacb ca3e bc2c 6d3d
00000070: 14fa 9ebe 2291 563e e2fd 34be ba82 d2bc
00000080: 556c d8be 0c27 ff3d c63b 33be 5289 41be
00000090: 973f 923e e3be 623d c9ff c63e 6673 083d
000000a0: 352a 153e 1ed8 babe f569 dbbe 6859 81be
000000b0: 8a11 cfbe 3c52 12be 0305 5a3e 0658 7f3e
000000c0: 7ef6 dbbe 9bec e43c d395 c4bd b789 123e
000000d0: 4d72 82bd d459 bf3d f8d2 583e 1e62 f53c
000000e0: 37d1 6bbd dbcd 23be 3fa1 9c3e a1bd ab3e
000000f0: 7361 c5be 85d2 c93e aafb c8be ab0e 60bd
00000100: 514d d8be 3a0a 9d3e 55ff dc3e a6e9 c2be
00000110: be2c 74be 7490 aa3e e318 c4be 1e5c 4bbe
00000120: 0973 d6bc ca78 553e d639 cabe 3255 823e
00000130: 5324 b93e e906 e73e 25a5 0a3c 05b8 1ebe
00000140: 1f6c 893e 40ff c0be cc60 a2be 3877 8ebd
00000150: b656 04be 6ccf 103e 2eca 693e 411a 05be
00000160: 7eda 83be 77f0 593e eb91 79bd e468 cfbd
00000170: 4156 c6be 6a96 573e e83b 863d 6771 00bd
00000180: a6d4 9dbe 04bb 03be 10a0 ee3c 56c9 40be
00000190: 8824 8ebe eee5 3b3e 7a5c 71be 8665 0cbe
000001a0: caac 1c3e cc84 a93d 9350 3fbe 135e 41be
000001b0: 4002 443b ec4a c1be 183a 233d a024 b43e
000001c0: ff5b 0c3e a05d 123e 8804 de3e e3d2 3dbc
000001d0: accf 8abe f578 b2be aa0a db3a c66f 923e
000001e0: 3617 983e 73db 16be ba93 643d 88c6 b13c
000001f0: 2e23 843e ae73 63be 4da7 bc3d 669c b7be
00000200: 9526 1cbe c116 21bd 67ad 773d 4cb7 a83d
00000210: 4330 bf3e acf2 c83d 0799 8abd fe43 5b3e
00000220: 2b33 553d 8d1f 2e3e 97f5 de3e e1b7 f6bd
00000230: 9a21 debe 8ce7 6dbe 0f3f 36be 6e76 873e
00000240: 0b7a 7b3e e845 603d a04b c43e 140e 813e
00000250: 89c6 913e 7127 573e 4bc8 b3be 53c9 de3e
00000260: 10b1 4f3e b57a f2bc e188 21be 065a bf3e
00000270: 322a debe 1235 05be 2ec1 3c3e 2a1f 8e3e
00000280: 38b3 aabe 2dd1 e23d 4e86 74be 3ea9 573e
00000290: 1d17 013e cf5a 19be a6da e6be f6eb afbe
000002a0: 7634 91be ba5e 633e a11f e3bb a2a3 df3d
000002b0: eeeb 6a3e 0069 90bd e39a 6bbe f3f2 c73e
000002c0: 689b 52bd d472 54be 12ef 8cbe 7f3e 1d3c
000002d0: c6a0 e0bd 9666 923e 3026 603d b5a3 e0be
000002e0: 344c 503e da14 9a3e 8d68 d7be d3f0 d7be
000002f0: 0904 87be 61b7 ab3e a947 323e efe3 d1bd
00000300: 67d3 ddbe 045a 5dbe b9ff 86be 1e3a 363e
00000310: 2a68 553e 7b7e 5c3e 974a 34be 7b04 bf3e
-0.42802244 -0.39673984 -0.22581507 0.08393654 -0.18631044 -0.033819698 -0.12571001 -0.18087173
0.30458516 0.4503496 -0.43635347 0.124883175 -0.18780032 -0.19192703 0.16075219 0.16500412
-0.06432913 0.32769102 0.074582756 -0.4211932 -0.1253114 -0.16437012 -0.33368132 -0.4278217
-0.18028234 -0.0042461026 0.39608556 0.05790399 -0.3105017 0.20953801 -0.17674974 -0.0256971
-0.4227015 0.124586195 -0.1750327 -0.1890004 0.2856414 0.055357825 0.38867024 0.033313178
0.14566882 -0.3649301 -0.42854276 -0.25263524 -0.4044307 -0.14289182 0.21290974 0.24935922
-0.42961496 0.027944854 -0.09598889 0.14310347 -0.063694574 0.09343305 0.21174228 0.029954012
-0.05757257 -0.15996496 0.3059177 0.33543113 -0.3855091 0.39418426 -0.39254504 -0.05470149
-0.42246488 0.30671865 0.43163553 -0.38068885 -0.23845193 0.33313334 -0.38300237 -0.19859359
-0.0261779 0.20846859 -0.3949725 0.25455624 0.36160526 0.4512246 0.008462225 -0.15499885
0.26840302 -0.3769474 -0.31714475 -0.06956333 -0.12923703 0.14141625 0.22831032 -0.12998296
-0.25752634 0.21283136 -0.060930174 -0.10127428 -0.38737682 0.21053472 0.06554395 -0.03135815
-0.308263 -0.1286431 0.029129058 -0.18826804 -0.27762246 0.1834943 -0.23570433 -0.13710603
0.15300289 0.08277282 -0.1868308 -0.18883543 0.0029908568 -0.37752473 0.039850324 0.35184193
0.13706969 0.14293528 0.43362832 -0.011585924 -0.27111566 -0.34857908 0.0016711552 0.286009
0.2970521 -0.1473215 0.055804946 0.021701112 0.2580809 -0.22212097 0.092115976 -0.3586151
-0.15249093 -0.03932834 0.060468104 0.08238086 0.37341508 0.09811911 -0.06767469 0.21412656
0.05205075 0.17004223 0.43546745 -0.12046791 -0.4338501 -0.2323286 -0.17797492 0.26457542
0.24558274 0.054754168 0.38338947 0.25206053 0.28471783 0.2101114 -0.3511375 0.43512973
0.20282388 -0.029599527 -0.15774871 0.3737337 -0.43391567 -0.13008526 0.18433067 0.2775815
-0.33339858 0.11075053 -0.23879358 0.21060655 0.12606473 -0.14976047 -0.4508869 -0.3435971
-0.28360337 0.22204104 -0.0069312607 0.10919882 0.22941563 -0.07051277 -0.23008303 0.39052543
-0.05141774 -0.20746928 -0.27526146 0.00959742 -0.10968165 0.28593892 0.05472392 -0.438749
0.20341569 0.30094033 -0.42071953 -0.42175922 -0.26370266 0.33538345 0.17410149 -0.10248553
-0.4332535 -0.2161637 -0.26366976 0.17795607 0.20840517 0.21532623 -0.17606579 0.37308106

sequential/dense_2/MatMul f4 [7, 10]
00000000: 5c9b 13bf feba a13d 73cb 423b ad9d 00bf
00000010: 9518 fabd 1d4d 8a3e 48b5 5e3e 6bc7 2fbe
00000020: e6f4 033f 90c4 cb3e e35f 96be 945c b4be
00000030: 29c2 18be 9040 7f3e 0fd3 07bf 4d38 943e
00000040: 377b 61be b0b5 40be e789 123f 9c52 c33e
00000050: ea79 803e 290d 9ebd 7d27 bf3e 6353 a93e
00000060: 02f4 0dbf ff54 dbbd a780 ad3e 70aa e9be
00000070: 7f76 0f3f eda6 aebe cc4d 17be 924a 20be
00000080: a372 acbe d048 acbe b723 b93d f9cc 48bc
00000090: 62ff 1dbe 80ad 833e f6cd 66be bb1c 00bf
000000a0: e077 2ebe 46df fcbd 251d 463e cdf1 0b3f
000000b0: 16a1 de3e 93b9 903e 2d82 89be 8388 ebbe
000000c0: 962d cb3e 0943 fc3d f280 9cbe 162a a03e
000000d0: 63a0 e93e 47e5 9c3e 92f9 a83c af75 eebe
000000e0: 51ea be3e 2ff2 fdbe 6b0c 3b3e 8126 ed3e
000000f0: e008 adbe 64cb ef3e 9527 0abf 0d89 613e
00000100: be54 82be 2da8 673d ea39 dabe 17a5 07bf
00000110: 25cc b5bd 75fd 063f
-0.57658935 0.07896994 0.0029723316 -0.50240594 -0.1221172 0.27011958 0.21748841 -0.17165916
0.5154556 0.39798403 -0.2937003 -0.35226882 -0.14917816 0.24926972 -0.53056425 0.28949204
-0.22019659 -0.18819308 0.5724167 0.38148963 0.25093013 -0.07717354 0.37334815 0.33071432
-0.5545045 -0.10709571 0.33887216 -0.45637846 0.56040186 -0.3411173 -0.14775771 -0.15653446
-0.3368121 -0.33649302 0.09040015 -0.012255901 -0.15429452 0.25718307 -0.22539505 -0.5004384
-0.17037916 -0.123472735 0.19347055 0.54665834 0.43482274 0.28266582 -0.2685713 -0.46002588
0.39683217 0.123174734 -0.30567127 0.3128211 0.45630178 0.30643675 0.020626817 -0.4657416
0.37288144 -0.49598834 0.18266456 0.4631844 -0.33795834 0.46834862 -0.5396665 0.22024937
-0.25455278 0.05655687 -0.4262231 -0.5298628 -0.08876828 0.52730495
